src/Celeb_Smile_dict.pth (torch, 905312 bytes, 20 tensors)

c0.weight f4 [16, 3, 3, 3]
00000000: cc12 663e 4cfb 3fba 89ac afbd 8c61 d6bd
00000010: 0df4 bd3d 1dc9 c0bd 8370 553c c215 423d
00000020: f327 27be 250f 8c3d da1a 71be ed60 84be
00000030: 0f00 763d f8cd 9dbe c3be 66be 9a2d 0ebe
00000040: 53a2 afbe e8d3 b9bd e414 7dbd c594 6abe
00000050: 0389 85be c031 fcbd 8bfe 84be fb51 a8be
00000060: 5cdc b8be e2c5 92be 543f fbbd 2cfe 9bbb
00000070: ee58 133e b15a 033e 0b0e 333c 003e 2b3e
00000080: b508 84bd 06fc 04bd 4747 3bbe 9e97 7b3c
00000090: fc8e 233d 21b3 163d dea1 3ebd 0f81 593e
000000a0: a83e fd3b 975f b33d 7f10 6a3e 30d4 de3d
000000b0: c80a 2b3d 9716 c2bc 5ff8 5f3e a2fb 863e
000000c0: 86df 843e d65d 6c3d 9b7e 063e 894f 3c3e
000000d0: af90 323e c197 813e 2e46 5dbe 1c6a 8cbe
000000e0: 8892 afbd 8207 28be d24a 3dbe e39a 8abe
000000f0: 6133 a2be 6d9a 0abe 3526 36be 0aec c9be
00000100: 909e dabe e7ca 8abe d008 97be f7c5 8cbe
00000110: a885 fdbe b9bb 52be a697 d9bd b4f1 d2be
00000120: 3779 56be f664 85be fb92 6abe 255d dfbe
00000130: 721a 59be c775 c0be dee5 95be f035 4abe
00000140: e854 d8be a4b0 d93e 54d0 d33e f0d0 f83e
00000150: b490 cf3e 25f7 f63e cae0 1f3f 0a2c 053f
00000160: 5778 da3e e822 b33e 6af2 213f 9e2f 203f
00000170: 4954 9e3e c95c db3e ad39 d93e 83ee 103f
00000180: 033c 8e3e e1af 023f f352 1d3f 04d2 c23e
00000190: b1e2 c43e ab0d 6f3e d261 013f 10e8 a43e
000001a0: 9ecd 1b3e 54f9 ca3e 6dc0 243e 0a30 933e
000001b0: 4469 243e b74c 153e 4f44 9bbd 1272 1e3b
000001c0: cc14 98bc b2be ca3a 8802 273e f04a 233e
000001d0: d479 493e bbbd f53d c87c 3b3b fde5 943d
000001e0: 9154 233c 2842 13be 0e4b a4bd d33e f03c
000001f0: 9641 c2bd 877f 82bc fd5c 68bd 32a5 2a3e
00000200: 8fc3 603d 0dad 053e 116f 323e 2342 c7bd
00000210: 156d 3d3e b0e8 4f3e 9d9d 343e 5650 b1be
00000220: c3fd a1be 0648 d1be 7b6e 8bbe 4e3b 35be
00000230: 0c19 37be 597e 3fbe b205 c6be 5e0e 83be
00000240: 9f5e 81be 4465 ffbe a40b 9bbe 3d3a e8be
00000250: 8086 92be 31c5 07bf 0426 f0be 683d dcbe
00000260: 79be 71be d076 05bf a6d6 f1be 2f9c b5be
00000270: e425 f5bd 460a 92be 8f37 f5be 6bf6 fabe
00000280: 1f12 21be 376b cebe 2ceb 84be 25f1 0cbe
00000290: 4817 46be ad94 d23d a937 ca3b 0897 16bc
000002a0: 82f3 30be e4c6 46bd e214 3e3e 7eba d5bd
000002b0: b1e1 eebd d920 183e a541 a3bd 922c d8bd
000002c0: a89f 30bd 47e5 14be 6e3d 17bd 5145 b83d
000002d0: 070e b93c feb5 513e 0d55 fb3c 31e9 a33c
000002e0: 8c6c e8bd 1821 053e d5ab 9abc d748 3bbd
000002f0: 39c7 e33d df6b a8be f983 16be bf05 89be
00000300: da17 6ebe 99c8 dabe 20a4 bfbe 080a 05bf
00000310: 877d fdbe 698d 64be 2614 30bf 1b59 04bf
00000320: 7465 cdbe 55c8 09bf ec99 22bf 3ffb 0bbf
00000330: 95a4 33bf c4ab 18bf f4f2 35bf ade3 e9be
00000340: 544e 10bf 8aee 00bf 9334 40bf 72ac 3fbf
00000350: 1034 0cbf e285 15bf 2e52 05bf a3b6 05bf
00000360: 7947 cf3c 9218 623e b6c7 e73d 53b5 363e
00000370: c30f 353e cd77 9b3e 88a1 653e 463b a23e
00000380: 223b 8d3d 1da4 80bd b600 3e3e d85d 373e
00000390: c86f 6d3d 5e5b e63d 9241 8c3d b24c e03d
000003a0: 1550 febc 7355 b03d 8e0a 423e fd86 943e
000003b0: 9f14 693e 6812 2d3d 37c8 a2bd 0035 c4bc
000003c0: 3f47 2d3e 7912 a03c fd98 843d 7eb8 fd3d
000003d0: 5b1e a53e 88a4 86bc 2d35 e83d 192b 203d
000003e0: ceb1 2c3e d921 853b 3fa0 913e dee0 9f3e
000003f0: 05e4 1a3a 81d1 ab3d a9d6 d0bd 4da8 c83d
0.22468108 -0.0007323518 -0.0857783 -0.10467824 0.092750646 -0.09413359 0.013027313 0.04738403
-0.16323833 0.06838826 -0.235454 -0.25855199 0.06005865 -0.30821204 -0.22533707 -0.13884583
-0.3430353 -0.09073621 -0.0617875 -0.22908314 -0.26081094 -0.123141766 -0.2597545 -0.32875046
-0.3610562 -0.28666598 -0.12267938 -0.0047605243 0.14389393 0.12827565 0.010928641 0.1672287
-0.06446973 -0.03246691 -0.18288909 0.015355973 0.039931282 0.036791924 -0.046541087 0.21240638
0.0077284165 0.08758467 0.22857855 0.10880315 0.04175833 -0.023692412 0.2187209 0.26363856
0.25951785 0.057706676 0.13134234 0.18389715 0.17438005 0.25311092 -0.21608803 -0.27424705
-0.085728705 -0.16409114 -0.18485573 -0.27071294 -0.31679824 -0.13535471 -0.17788012 -0.39437896
-0.426991 -0.27107927 -0.2949891 -0.27494785 -0.49516034 -0.20579423 -0.10624628 -0.4120003
-0.20944677 -0.2605359 -0.22907631 -0.4362575 -0.21201494 -0.37589857 -0.29276937 -0.19747138
-0.42252278 0.4251758 0.4136988 0.48596907 0.40540087 0.4823543 0.62452376 0.52020323
0.42669937 0.3498757 0.6326052 0.6257266 0.3092368 0.42844227 0.42426816 0.5661394
0.2778016 0.5104962 0.61454695 0.38050854 0.38454202 0.23345058 0.50539887 0.322083
0.15215155 0.39643347 0.1608903 0.28747588 0.1605578 0.14580046 -0.07581388 0.0024176878
-0.018564604 0.0015468209 0.1630956 0.15946555 0.1967538 0.11999079 0.002860831 0.07270429
0.009968893 -0.14380705 -0.08022128 0.029326832 -0.09485166 -0.01592995 -0.056729306 0.1666458
0.054874 0.13054295 0.17425181 -0.097294115 0.18498643 0.20303607 0.1763825 -0.34631604
-0.31638917 -0.40875262 -0.27232727 -0.17698404 -0.17880648 -0.18700542 -0.3867622 -0.255969
-0.25267503 -0.49881947 -0.3028232 -0.45356932 -0.2861824 -0.53035265 -0.46904004 -0.430156
-0.23607816 -0.5213442 -0.47234076 -0.3547072 -0.11970118 -0.28523463 -0.4789395 -0.49016127
-0.15729569 -0.40316173 -0.25960672 -0.13763864 -0.19344819 0.10282264 0.006171186 -0.009191282
-0.17280391 -0.04852952 0.18562654 -0.10435961 -0.11664141 0.1485628 -0.07971505 -0.10555376
-0.04312101 -0.14540587 -0.03692382 0.08997596 0.022589697 0.20479581 0.030680204 0.020008655
-0.11348829 0.13000906 -0.018880764 -0.045723762 0.11121983 -0.328948 -0.14698781 -0.26762196
-0.23251286 -0.4273117 -0.37429905 -0.5196843 -0.49509832 -0.22319569 -0.68780744 -0.51698464
-0.40116465 -0.5382131 -0.63516116 -0.54680246 -0.7017301 -0.59637094 -0.7107384 -0.45681515
-0.5636952 -0.5036398 -0.7508022 -0.74872506 -0.5476694 -0.58407414 -0.5207852 -0.52231807
0.025302636 0.22079685 0.11317389 0.17842607 0.17681794 0.30364838 0.224249 0.31685847
0.06896044 -0.06281302 0.18554959 0.17906892 0.05796793 0.11247896 0.06848444 0.109521285
-0.031044045 0.08610048 0.18949339 0.29009238 0.22761773 0.04225388 -0.07948344 -0.023951054
0.1692171 0.019540058 0.06474493 0.12388705 0.32249722 -0.016435876 0.113382675 0.0391036
0.16864702 0.004062873 0.2844257 0.31226248 0.00059086113 0.08389569 -0.10197193 0.09797726

c0.bias f4 [16]
00000000: 44da a53c 7806 87bd 6519 0b3e c3a9 be3b
00000010: 4a99 953d 451e 03be 513e 80bc 2ee4 10be
00000020: e74e efbd 1251 19be 5054 e03c 7193 02be
00000030: b8b8 6e3d cbd3 1b3e 0abd 283e 1e61 8bbd
0.020245679 -0.06593031 0.13583906 0.005818577 0.07304628 -0.12804516 -0.015654715 -0.14149544
-0.11684971 -0.14972332 0.027383953 -0.12751557 0.05828163 0.15217511 0.16478363 -0.06805633

c1.weight f4 [32, 16, 3, 3]
00000000: 38a1 14bd 50bf 10bd e706 eabc f7f5 3abc
00000010: cf79 05bd 58b3 8e3d 75b3 e9bc 763d 6cbd
00000020: 28e0 943d 7bf1 c63d ea71 8c3c fd7b d83d
00000030: 6c91 83bd bc8c 983d 3684 bf3d ce92 b33c
00000040: b320 62bd a26d 91bd f86c 0d3d 486e 013d
00000050: 36e2 8e3d 1fd9 24bd 4262 71bd 41d7 953b
00000060: c107 66bd 5f2b 49bd b260 f4bc 9efd 0d3d
00000070: 9abb cf3d 488a 883d 50b9 a4bd bf10 2fbb
00000080: b17c 243d 0311 eb3c 3388 41bd 1e5c 18bc
00000090: a15d 813c af7a 8dbc 51af 8abd ff3e 01bc
000000a0: 444d b4bd bc6c 02be b8af 1cbd f693 d9bc
000000b0: 6f75 3ebd 5a82 153d d21e 6c3d 3780 1b3d
000000c0: b334 c33c afe7 433d c058 53bc 4710 203d
000000d0: 3f15 7d3d 186e 7f3c 25a0 09bd 764b ea3c
000000e0: 4d4d 4dbc 556d 9cbc 5a3c 1e3c ec91 a63c
000000f0: bd2a 50bd 722e adbd 4521 3abd c230 303d
00000100: 7348 a4bc fe4f 2c3d 6754 c9bb 978d 723d
00000110: b159 423d 0630 8e3d 4d8b 4bbd 252a 9dbc
00000120: dc9c 91bd c2e5 d2bc 4cb6 42bd 666c b4bd
00000130: a61b 47bd 9c6c 03bd 7814 99bd 4592 b33c
00000140: ad48 3d3c dd02 2f3d 7ee9 04bd ee1e 8c3d
00000150: 65f2 65bd dc56 163d c2cd 9dbd 72f7 253d
00000160: b266 48bd 0224 433d 70fb 01be aee9 34bd
00000170: 433e 403d 6b60 d6bc 9871 8abd 41a5 463d
00000180: 1310 02be 83a7 a9bd 84ba dabb 96c3 9a3d
00000190: 39d4 083e 5e93 7b3b 9ecc 093d ccd0 2d3c
000001a0: e95d 6cbc 75c9 b53d 21fd 153e 0449 1e3e
000001b0: b936 2d3d 4cd2 eb3d ddc1 583d 1978 cb3c
000001c0: 4041 8ebd 14af eebc 8b58 863d a7df b93d
000001d0: e4f7 6c3c 374b 503c ae17 8dbc 5836 39bd
000001e0: efce 1ebd 353e 88bd 177c 92bd 9d67 26bb
000001f0: ce8a 6f3d 98db 063a 9fbb d13c baf9 5e3d
00000200: cfa8 c13d 9289 d23d b1c5 0c3e b1a2 ec3c
00000210: e413 863b fa8f 83bc 7f53 09bb 6fba 27bc
00000220: 45e5 a9bd c496 e2bd 64b8 a2bd 19d4 cbbd
00000230: ad2a 8abd 4764 e4b9 956d 12bc 314c f3bc
00000240: 1ec5 4dbd 2133 1dbd b594 053d 0de4 34bd
00000250: 082a c5bd 587a 00be 86dd 4e3d 8df6 e3bc
00000260: 3df9 17be 6007 b73a 0908 efbd 6862 dbbc
00000270: 06bc 1c39 3fbd 96bc 9b61 88bd 543f 8bbd
00000280: 1a30 96bc 10a2 aeb9 b4b6 c13d af27 54bb
00000290: 0939 1cbd f4bf cf3d afb3 4a3b f8fa 48bd
000002a0: a540 003e 08f2 093d 7851 403d 2189 5bbd
000002b0: 6b9f 3fbd 9ffe d5bd 10e0 83bd fa2f cdbd
000002c0: 8771 6ebc 65dc 26bc bda9 a53c c557 bebd
000002d0: 08eb d2bd c1e9 b0bd 881b c2bd 4f5b abbd
000002e0: 651c be3b fa47 c33b 988a 413d cb39 f43c
000002f0: 1385 da3a aa85 1d3d 5272 e13d a0c3 693d
00000300: 8f37 383d 2b47 af3d c90c 173d bcf9 9e3d
00000310: 77b2 a43d 3f32 bebb 84c4 933b 5ef8 623c
00000320: c66a fc3c bca2 c2bd dc19 d83b 614b 2f3d
00000330: 6f33 b7bd c382 6c3d 5cb4 f33c 7737 db3d
00000340: 4ea1 3a3d 7d34 5abd 28d9 d53d d5d9 24bd
00000350: 796f d53c d333 063e 88ea 523d d9ea 87bd
00000360: 2e0a cfbd 230d b0bd f1f3 ddba e945 a3bd
00000370: 39f5 d73c 5a88 bebb 4dfd 53bd 3ed6 e3bd
00000380: d09f 573d b14b f6bd 9a2e a0bd 9bda 85bd
00000390: a18c 99bc f869 babd 6c40 15bd f198 9dbc
000003a0: 4e52 72bb 16cc 3ebd f370 fc3c 02f5 b13d
000003b0: 61d5 ca3c df4c 4fbd 660f 1c3d 122e 6f3d
000003c0: 5aca 17bd ab03 ef3c 1f60 95bd 1eb1 81bc
000003d0: bd13 c83c 791e c63d 8547 9fbd 3efa 5bbd
000003e0: 7f42 c03d 751b aabd 4ce1 e53c 6208 c03d
000003f0: 87a7 28bd 5361 b7bd b089 cfbc e1e2 9abd
-0.036286563 -0.0353387 -0.028567744 -0.011411182 -0.03258687 0.06967801 -0.028527955 -0.0576758
0.07269317 0.097140275 0.017144162 0.10570524 -0.064242214 0.07448718 0.09351389 0.021920588
-0.055206966 -0.07100989 0.03452775 0.031599313 0.0697674 -0.040246125 -0.058931597 0.0045727794
-0.05615974 -0.049113628 -0.029831264 0.034665696 0.10143204 0.06667 -0.08043158 -0.0026712862
0.040157977 0.028694635 -0.04724903 -0.009299306 0.015791716 -0.017270414 -0.0677172 -0.007888555
-0.088038 -0.12736791 -0.038253516 -0.026559811 -0.046498712 0.036501266 0.05764658 0.037964072
0.02382884 0.047828373 -0.012899578 0.039078023 0.06178784 0.015590213 -0.03359999 0.028600436
-0.012530637 -0.019095102 0.009657944 0.020333253 -0.05082201 -0.08456124 -0.045441885 0.04301525
-0.020054078 0.042068474 -0.0061440947 0.05921706 0.047448818 0.069427535 -0.049693394 -0.019185135
-0.07109997 -0.025744323 -0.047537133 -0.08809738 -0.048610352 -0.032086 -0.07474607 0.021920333
0.011552972 0.04272734 -0.032449238 0.06841837 -0.05613937 0.03670393 -0.07705261 0.040519185
-0.048926063 0.04764176 -0.12693572 -0.044168167 0.046934377 -0.026169023 -0.067599475 0.048497442
-0.12701444 -0.082839034 -0.0066750664 0.07556836 0.13362207 0.0038387398 0.033642404 0.010608863
-0.014426687 0.088763155 0.14647342 0.15457541 0.042288516 0.1151472 0.052919257 0.02483754
-0.06946039 -0.029136218 0.06559857 0.090758614 0.014463399 0.012713245 -0.017223205 -0.045217842
-0.038771566 -0.0665249 -0.071525745 -0.0025391348 0.058481984 0.00051444164 0.02560216 0.054437377
0.09456026 0.10280146 0.13747288 0.028886171 0.0040917266 -0.016059864 -0.0020954309 -0.01023732
-0.08295683 -0.110639125 -0.07945326 -0.09952564 -0.06746421 -0.0004356226 -0.008937259 -0.029699417
-0.050236814 -0.03837884 0.03261252 -0.0441628 -0.096271574 -0.1254667 0.05050423 -0.027827526
-0.1484117 0.001396399 -0.116714545 -0.026780322 0.00014947364 -0.018400786 -0.06659242 -0.06799188
-0.018333483 -0.00033308612 0.09458676 -0.0032372286 -0.03814033 0.10144034 0.0030929854 -0.049067467
0.1252466 0.033678085 0.046952695 -0.053597573 -0.046782892 -0.10448956 -0.06439221 -0.100189164
-0.014553434 -0.010184382 0.02022254 -0.092940845 -0.10298735 -0.08638335 -0.094779074 -0.08367025
0.0058017247 0.005959508 0.047251314 0.029812714 0.0016671739 0.03845755 0.11008133 0.05707133
0.04497486 0.08558496 0.036877427 0.07762477 0.08041852 -0.0058043296 0.0045095105 0.013853161
0.030812632 -0.09503695 0.0065948796 0.042796496 -0.08945357 0.05774189 0.029749088 0.107039385
0.04556399 -0.053272713 0.1044181 -0.040246803 0.02605413 0.13105707 0.051493198 -0.066365905
-0.101093635 -0.08596256 -0.0016933662 -0.07972319 0.026362048 -0.005814594 -0.05175524 -0.11124848
0.052642643 -0.12026156 -0.078213885 -0.06535836 -0.018743815 -0.09102243 -0.03643839 -0.019237967
-0.0036975327 -0.04658135 0.030815577 0.0868931 0.02475995 -0.05061042 0.038100623 0.058393545
-0.037058212 0.029176554 -0.07293724 -0.015831526 0.024423474 0.09673781 -0.07777313 -0.053705446
0.09387683 -0.08306018 0.028061531 0.09376599 -0.04117539 -0.0895411 -0.02533421 -0.07562805

c1.bias f4 [32]
00000000: 9b43 85bd 3db7 fbbb d49e 873d 8288 523d
00000010: d897 a7bd 9c3d 0f3c aa0a 903c 1338 d2bc
00000020: a7d5 503d 9c8a 1cbd 9eff 243d d0dd 2dbd
00000030: 3b41 f83c f8bb 7a3d 2d9f 58bc a3d9 b03c
00000040: 981f 623d 3342 023d 7f96 9bbd 284b 9f3d
00000050: a64f 5dbd 4ec8 bdbc 26da 84bd b9ad 5f3d
00000060: e1a0 0cbd 9658 0f3d 46ab a43d aa31 37bd
00000070: a94d 0abd c163 a4bc 33e2 133d 068c 5abd
-0.06507035 -0.007681756 0.06622091 0.051399715 -0.08183259 0.008742716 0.01758321 -0.025661504
0.050985005 -0.038218126 0.040282838 -0.042447865 0.030304542 0.061214417 -0.013221544 0.021588152
0.05520591 0.031801414 -0.07597064 0.07778007 -0.054031037 -0.023166802 -0.06486921 0.054609034
-0.034333114 0.03499659 0.0804048 -0.044725098 -0.03376547 -0.020067098 0.036104392 -0.053356193

c2.weight f4 [64, 32, 3, 3]
00000000: 28c7 8d3d 3c0e 5c3e bf23 963d b7a9 e83c
00000010: 23c0 043d 5ca0 2cbd 8630 9a3d a550 0fbe
00000020: 1202 b3bc 0a8b 5dbd ac5f 12be 896a 13bd
00000030: 309e 82bd 4f02 51bd 3b34 c73d 08d8 a9bc
00000040: ed13 2e3d 15cb c23d c054 22bc b0a1 a0bc
00000050: 4c47 d9bc ccb2 b2bd 1b5c 80bd 562d e63c
00000060: 1ac3 1dbc b8c6 bb3d ada2 083e dc94 f3bc
00000070: 7ff2 053d 2f1e e3bc 49af 3abd 1aa3 ddbc
00000080: 205a b6bd cd91 90bc e7c9 303d faef 8fbc
00000090: 747e 31bd b226 11bc 2fa9 cc3b c7a5 3ebc
000000a0: 1ce5 b6bd dd03 8a3d 3512 8a3d 0312 d63d
000000b0: a63d 993c be25 db3d 2eef 8a3d b5c5 bcba
000000c0: d0be 763b 9125 81bd 2072 11be 49a5 8dbd
000000d0: 5a79 7fbd a5fa babc 31b6 aa3d 3d4d 033e
000000e0: a22e 39bd 8209 e63c c5fc b93c a37c f6bc
000000f0: f462 beba 0c77 08be b449 5abd 9f62 50bd
00000100: 807b 693d d426 3b3d 69f3 a33d 2943 483c
00000110: cd82 a53c 21b6 f3bd 5cf3 edbd cd50 f3bd
00000120: ab2f 7f3d 8598 403e 9bde a53d 2256 b93d
00000130: 0ead 333a 314d 16bd a5b3 13bd 3dc9 d1bd
00000140: 0f7d 85bd 10cc c2bc 5211 8ebd 9c72 8fbd
00000150: f3eb 00bd f5b5 9c3c a555 3abd 8291 e1bc
00000160: 2aa9 63bc 1656 71bd e1b0 323c 6f7b 4dbd
00000170: e517 c9bc 5f86 95bd bd19 67bd 76d2 8a3b
00000180: 7706 babd 458f 9dbd 5965 963c 2c5e 043d
00000190: 6f23 f53d 3963 963c 95e9 1a3d 97f8 abbc
000001a0: b63d dcbd 88eb 1f3b 4c9f 0dbd 3af2 b4bc
000001b0: 01b8 e83c 869f 923d ba85 09bd 75e9 593d
000001c0: 2d76 d13c 6ca1 dbbd af50 a1bd 285d 87bd
000001d0: 0362 acbc 9686 abbd 251e 2cbd 5fea 81bd
000001e0: c863 8cbd 36d2 8f3c de10 883d bd15 103d
000001f0: 1523 3b3e 9ccd 8b3d cfcf b73d 2564 303e
00000200: 0cf1 c2bc a554 bdbb d2d5 8cbc a2fc 1dbe
00000210: 5b6d 1d3c 7353 17be a99d 6f3c 49b5 b0bd
00000220: 96d9 bdbd fc0d 41bd ced2 57bb 8969 96bb
00000230: 498f 233e 39e7 fd3d b911 1c3e 4227 063e
00000240: cafc 2d3e 8055 fc3d 8b9b 97bb e6ff 013d
00000250: 0099 ea3d 2b7b f73c 79ba bb3d 7323 d3bd
00000260: cb02 953c 4a0f f6bc e08a 3f3c 917f 77bd
00000270: 5f74 d7ba 5ecf 6e3d be72 96bc 1578 4f3c
00000280: b716 d93d 0c12 d13c eed7 623d 2606 ee3d
00000290: 3c77 88bc 0be3 e53b a922 21bc 82bc 91bd
000002a0: 6edf 94bd dc11 52bd 4679 78bd b438 74bc
000002b0: cdce ba3b abce c83c 19b0 213b 4165 343d
000002c0: 5095 a63c d59b 083c 8b18 053e 4393 b93d
000002d0: a888 243e 3756 be3d 9d92 223d eced 803d
000002e0: 399e b4bd 8d4b 19be 0990 9abd 64e0 3fbe
000002f0: b4d1 9ebd 54fe 89bc 993e e23d da0b c8bc
00000300: 68df 1abc 5a8e 613d d138 973d bc5f e73c
00000310: 107d efbd 2409 1b3d 4f01 ce3d 4516 573e
00000320: 8865 a23d 98b2 fe3b 5b9f a53d bfe3 5cbc
00000330: 4ca0 d53d b2fc ddbd 244c abbc 18e7 5f3d
00000340: 8d4d ea3d bec7 02bd 2777 0a3d 277f 07bd
00000350: c6d9 333c bc85 f8bd d1b7 15be a1f8 14bd
00000360: f324 46bd 07b5 853b b8ee 6c3c e62f 1f3b
00000370: 48f4 0e3c a3ac 943c c225 7e3d 4a02 893d
00000380: 1e2a f03d b1ec 2abd 846f 56bd 6b9d 69bd
00000390: 0cf9 e6bc 3ac3 babd a696 06bd 64fb a3bc
000003a0: af81 363d 3850 053e 5488 973d d65d f13d
000003b0: e015 2abd 2250 5f3d a5ca e5bd 40c9 16be
000003c0: 55a1 67bc 5c70 60be 2cf4 0fbd d6ca ec3d
000003d0: a096 483e ca3d c63d 225f ee3d 8ccf d9bc
000003e0: efc1 89bd 973e 5b3c 140a b1bd 1627 31bc
000003f0: 7595 f63c 6979 563e 4228 c23d f3bd c73d
0.06922752 0.21489805 0.07331037 0.028401239 0.0324098 -0.042145118 0.07528786 -0.13995607
-0.021851573 -0.054087676 -0.14294308 -0.03599027 -0.06377828 -0.051027592 0.09726759 -0.020732895
0.04249947 0.09511391 -0.009907901 -0.019608349 -0.026523255 -0.08725509 -0.06267568 0.02809779
-0.009629035 0.09168762 0.13343306 -0.029734068 0.032701965 -0.027724354 -0.04557732 -0.027055312
-0.08903909 -0.017647648 0.0431613 -0.017570484 -0.043333486 -0.008859323 0.006245754 -0.011636204
-0.08930418 0.06739018 0.06741754 0.10452654 0.018706154 0.10700558 0.06783901 -0.0014402183
0.0037650354 -0.06305993 -0.14203691 -0.06916291 -0.06237159 -0.022824595 0.083355315 0.12822433
-0.04521049 0.028080706 0.022703538 -0.030088728 -0.001452534 -0.13326663 -0.053292945 -0.050875302
0.057002544 0.045691326 0.08005411 0.0122230435 0.020203972 -0.11899973 -0.11618683 -0.11880646
0.06230132 0.18808182 0.08099099 0.09049632 0.0006854095 -0.03669471 -0.036059994 -0.10243461
-0.06517994 -0.023778945 -0.06936897 -0.07004282 -0.03147502 0.019129733 -0.045491833 -0.027535204
-0.013895312 -0.05891999 0.010906429 -0.050166544 -0.024547527 -0.0730102 -0.05642103 0.0042365147
-0.09083264 -0.07693342 0.018358873 0.03231637 0.11969649 0.01835786 0.037820417 -0.02099256
-0.10753958 0.0024401862 -0.034575745 -0.022088159 0.028408052 0.07159333 -0.033574797 0.053201158
0.025569046 -0.10724148 -0.07876717 -0.06609565 -0.02104283 -0.083752796 -0.042020936 -0.06343531
-0.06854969 0.017556291 0.06643842 0.03517698 0.18275101 0.06826326 0.08975183 0.17225702
-0.02379658 -0.0057779127 -0.017191801 -0.15428403 0.009608592 -0.14777927 0.014624991 -0.086283274
-0.09270017 -0.047132477 -0.0032932046 -0.0045902175 0.15972628 0.12397618 0.15241136 0.13100913
0.16990963 0.12320995 -0.0046266965 0.031738184 0.11454964 0.030210098 0.09166426 -0.10309496
0.018189808 -0.030036587 0.011690825 -0.06042439 -0.001643788 0.05830323 -0.01836526 0.012662907
0.10600036 0.0255213 0.055381708 0.116222665 -0.016658418 0.007015591 -0.009834924 -0.07116033
-0.07269178 -0.051286563 -0.06066253 -0.014906097 0.005700922 0.02451261 0.0024671613 0.044041876
0.02033487 0.0083379345 0.12997644 0.09061291 0.16067755 0.09293788 0.039690603 0.0629538
-0.08819241 -0.14970227 -0.07547004 -0.18737942 -0.077548414 -0.016844906 0.11047096 -0.024419714
-0.009452678 0.055067398 0.07383884 0.028243892 -0.11693776 0.037850514 0.10058843 0.21004589
0.07929522 0.007772755 0.08087035 -0.013482033 0.10430965 -0.108392134 -0.02091033 0.054663748
0.11440573 -0.03192877 0.03380504 -0.033080246 0.010977214 -0.12134883 -0.14620902 -0.036369924
-0.04837508 0.004080418 0.014461212 0.0024290024 0.008725233 0.018148726 0.062047727 0.0668989
0.11726783 -0.041729633 -0.052352443 -0.05703489 -0.028194927 -0.09119268 -0.032858513 -0.020017333
0.04455727 0.13018882 0.073990494 0.11785476 -0.041524768 0.05451978 -0.11220292 -0.14725208
-0.014137586 -0.21917862 -0.03514497 0.115621254 0.19588709 0.09679754 0.11639239 -0.026588224
-0.06726443 0.013381622 -0.086445004 -0.0108125415 0.030100564 0.20944752 0.09480335 0.09753027

c2.bias f4 [64]
00000000: 1671 f53c 4997 063b db87 15bd 90b9 db3c
00000010: 47d4 f7bc 1618 9bbb e70b 37bd a080 1eb9
00000020: da60 d6bc 2edd 0c3d cd5a 4ebd 1b68 013d
00000030: 27f1 04bd 1bd8 36bd 5624 3ab5 9050 173d
00000040: 8cf7 a73c bca8 c3bc dd2a 663d 2fef 45bd
00000050: 44c2 08bd 5c16 50bc d753 8f3c afdb 3fbd
00000060: fbe5 52bd d8a4 d1bc 879d f23c 521a 6f3d
00000070: 18e8 13bd bf70 62bd 518a ff3c 5123 1a3d
00000080: 0235 0c3d b209 edbc 1e36 e23b 0ca1 563d
00000090: 62dd 6f3c d46c 3e3c 992e 6b3d 226f 34bd
000000a0: cf6d bbbc f68e 6b3d 2e25 653d 4f17 2d3c
000000b0: 43e0 c3bc 729c 31bd ccc3 06bc 3bd0 9e3c
000000c0: 9226 21bd a95b fd3b d2be 85bc a4ac b8bc
000000d0: 3783 60bd 6c4c 653c 76e3 4dbc fab5 c8bc
000000e0: 248f 54bd 704b 5e3d 9469 70bc eb14 263c
000000f0: fcc2 37bd ef12 323c 480f ae3c de23 293c
0.02996115 0.002053695 -0.036506515 0.026821882 -0.030252589 -0.004733096 -0.044689085 -0.00015115971
-0.02616923 0.03439062 -0.050379563 0.031593423 -0.032456543 -0.044639688 -6.9343275e-07 0.036942065
0.020503782 -0.02388417 0.05619322 -0.048323806 -0.03338839 -0.012700643 0.017496033 -0.046840366
-0.051488858 -0.025591299 0.02961613 0.05837471 -0.036110014 -0.055283304 0.031193884 0.037631337
0.03423024 -0.028935287 0.006903424 0.05239968 0.014640184 0.011622626 0.057417486 -0.044051297
-0.02287951 0.057509385 0.05594366 0.010564639 -0.023910647 -0.04336209 -0.008225393 0.019386401
-0.039343424 0.007731874 -0.016326342 -0.022543259 -0.054812636 0.013995271 -0.012566438 -0.024500836
-0.051894322 0.05427116 -0.014673609 0.010136823 -0.044863686 0.010868772 0.021247521 0.010323493

bn0.weight f4 [16]
00000000: 5eaa 663f 9b28 733f 992f 913f c762 913f
00000010: 177a 6b3f efe9 923f 9f15 5b3f 06b7 7d3f
00000020: 2f14 803f fe27 853f 66eb 543f 7edf 4a3f
00000030: 07f2 8c3f eb84 843f 7d96 903f ff87 853f
0.9010371 0.94983834 1.1342651 1.135827 0.9198317 1.1477641 0.85579866 0.99107397
1.000616 1.040283 0.8317169 0.7924727 1.1011361 1.0353063 1.1295925 1.0432128

bn0.bias f4 [16]
00000000: 09d6 78bd 0b25 23be d326 b9bd 271f bb3c
00000010: 830e d3bd f40f 38be cd01 1cbe 51b6 78be
00000020: a566 f1bb 61d7 8e3d 3878 3cbe 83a3 c0bd
00000030: 871e 143e 9a97 2a3d b3dd e13d 1cf9 463d
-0.060750995 -0.159321 -0.09040608 0.022842003 -0.10305502 -0.17974836 -0.15235062 -0.24288298
-0.0073669725 0.06974674 -0.18405235 -0.094061874 0.1446477 0.041648485 0.11028614 0.048577413

bn0.running_mean f4 [16]
00000000: 3c6b bebf 768d 743f f3ea 48c0 99e3 a640
00000010: b66d 493f edfd 88c0 1a08 a2be acaa c4c0
00000020: d7fe b23f 39a6 3b3f cdfc 5d3f 9541 033f
00000030: 6e53 4d3f 0162 33bf 739c 1c3f 1d37 92be
-1.4876475 0.9552835 -3.1393402 5.215283 0.7868303 -4.280997 -0.31646806 -6.145834
1.3984021 0.7330051 0.8671387 0.51271945 0.8020543 -0.7007142 0.6117622 -0.28557673

bn0.running_var f4 [16]
00000000: 45dc 863f 0b7e f43e 9797 8c40 4ced 2941
00000010: ef51 4f3e 684d e040 a656 143d 841c 6f41
00000020: b91c 5f3f c322 913e a6ac 823e aaaf 223e
00000030: 0f90 4c3e 0f1b 8d3e c19b 9c3d cc3a 923d
1.0535971 0.47752413 4.3935046 10.620434 0.20246099 7.009449 0.036215447 14.944462
0.871532 0.28346834 0.25522345 0.15887323 0.19976829 0.27559707 0.07646895 0.07140121

bn1.weight f4 [32]
00000000: aaa0 883f a568 763f 5cc7 6c3f 43d8 7f3f
00000010: 8169 783f f952 883f 270c 6a3f 5ffe 7f3f
00000020: 3c18 863f dfe9 613f f375 573f 5649 8a3f
00000030: d466 6d3f 3cca 643f 759b 893f aeb5 8b3f
00000040: 35a1 823f 9800 8b3f ea7d 8e3f 09fb 5e3f
00000050: 62bd 943f 0c64 703f a440 853f b720 843f
00000060: 8097 633f c124 723f 613e 8e3f c804 7f3f
00000070: af97 843f dbfc 803f 6181 7c3f 181a 813f
1.0674031 0.96253425 0.924917 0.99939364 0.97035986 1.0650321 0.91424793 0.99997514
1.0476146 0.88247484 0.8416435 1.080363 0.9273503 0.89371085 1.0750567 1.0914819
1.0205446 1.0859556 1.1132176 0.871018 1.1620295 0.9390266 1.0410352 1.0322484
0.88903046 0.9458733 1.1112787 0.9961667 1.035879 1.0077165 0.98634917 1.0086088

bn1.bias f4 [32]
00000000: 70cb 583b 512a 8ebc ba52 aabd a072 4abe
00000010: 46b2 19bd 50c5 c7bb f167 cebd 94c4 8dbd
00000020: edea 1d3d 1252 89be 6a1e 11be 2948 18be
00000030: 2301 0abe fbd0 05be 2997 163d 596d 4f3e
00000040: 00b7 16bd c9cc 00bd b38d 2739 c9e2 a3bc
00000050: a83b 043d 776d 8dbe c4d5 833a 1ff5 d4bd
00000060: c9fc 02be 9ced a53c 2859 153d 3d37 fabc
00000070: 88b7 da3c 68a1 38be 61ad 9fbd 49d2 b0bc
0.0033080243 -0.017354162 -0.0831656 -0.19770288 -0.03752353 -0.0060965195 -0.10078419 -0.0692226
0.03855412 -0.26820427 -0.14171758 -0.14871277 -0.13476996 -0.13068001 0.03676525 0.20256557
-0.036795616 -0.0314453 0.00015979148 -0.0200056 0.032283455 -0.27622578 0.0010058214 -0.10398316
-0.12791742 0.020254903 0.03646198 -0.030543918 0.026698843 -0.18030322 -0.07796741 -0.021584647

bn1.running_mean f4 [32]
00000000: 847b 1b3d 1619 9dbf 0f94 6ebf 134d 4440
00000010: 36f3 38c0 bf24 7e40 a365 9d3f 86c3 13bf
00000020: 3cb3 ce3e 99ca fd3f b3e7 023f 63db 8a40
00000030: 9bde 2a40 42c2 6cbf 1849 bb3f bf7b b7bf
00000040: 53e4 f7bf 152b 6140 e2df 7740 ef1d 7cbe
00000050: c898 813e 637b 8b40 efc8 933e fc52 0ac0
00000060: 9804 853e 4bff cbbf 2460 f63f bd40 68bf
00000070: 1797 27bd 612a 3e40 5a51 0840 ec54 d23f
0.03795959 -1.2273281 -0.9319467 3.0672042 -2.8898444 3.9709928 1.2296642 -0.5772022
0.4037112 1.9827453 0.51134795 4.3392806 2.6698368 -0.92483914 1.4631681 -1.4334639
-1.9366554 3.5182545 3.8730397 -0.24620794 0.25311875 4.358812 0.28864238 -2.161315
0.25980067 -1.5937284 1.924809 -0.9072378 -0.040915575 2.9713366 2.1299653 1.6432166

bn1.running_var f4 [32]
00000000: 99b8 983e 1501 f43f 1835 a140 737a 8f41
00000010: 5fb3 6542 6f45 1c41 e146 8640 79d5 c73f
00000020: be85 0a41 bf09 1d41 e0a7 1f40 8cef 3a42
00000030: c927 0741 ae20 2340 e5bb 8e40 f3ba 9440
00000040: 90fa 1940 7e7d e041 8317 bc40 8729 db41
00000050: 1ed8 1140 c26f b740 e582 9640 0d22 6540
00000060: ec74 3942 bc2b cc40 b4ba 3942 3dc5 e440
00000070: 585c 0040 4e0e 5241 0f95 5c40 46ba 8240
0.29828337 1.906283 5.037731 17.93479 57.425167 9.766952 4.196152 1.5612022
8.657652 9.814879 2.4946213 46.733932 8.447213 2.5488696 4.4604363 4.647821
2.4059181 28.061275 5.87787 27.395277 2.2788157 5.7323923 4.7034783 3.5802033
46.36418 6.3803387 46.432327 7.149077 2.0056362 13.128492 3.4465978 4.0852385

bn2.weight f4 [64]
00000000: ead6 823f ca45 9c3e 600b 563f cd3a c03e
00000010: b4e3 083f b6cf 163f f540 323f ce8b 123f
00000020: 7a44 373f 7c9a 993e f46c 133f 3351 b53e
00000030: 373b 243f 7882 d83e 57b9 4a3f 9146 e63e
00000040: 49b5 023f bfdc c03e 6d43 083f 7ef8 3b3f
00000050: 04ad b03e 392a 943e 77c2 7e3e e6a3 fc3e
00000060: 28a4 013f 9a0e 273f 7e70 1e3f 5b91 1f3f
00000070: 33e3 ca3e c437 973e ab53 393f 1e6c 313f
00000080: 46b5 5c3f ff57 5d3f 1867 823e 7710 6d3e
00000090: 22c6 153f c0ce f63e 2b26 cc3e 6ac2 383f
000000a0: c93a 923e e2a9 5a3f 1f55 8b3e 4b86 843f
000000b0: 9a5e 223f 4bc2 ab3e 55af fc3e 63ad 293f
000000c0: 4680 5d3e f6ae 3b3f 57d9 533e d266 1e3f
000000d0: 4a67 fb3e 7090 2b3f d24e bd3e af89 243f
000000e0: a6c8 653e 5e0c 193f 43f4 de3e 1239 1a3f
000000f0: 20ff c43e acb2 b03e 81b6 b03e 46ef 043f
1.0221837 0.30521995 0.83611107 0.3754486 0.5347245 0.5891069 0.69630367 0.57244575
0.7158886 0.30000675 0.57588124 0.35413513 0.64152855 0.4228704 0.79189056 0.44975713
0.5105787 0.37668416 0.53227884 0.73426044 0.34507 0.28938463 0.2487887 0.49343795
0.5064111 0.65256655 0.618904 0.6233117 0.39626464 0.29534733 0.7239329 0.693056
0.862141 0.86462396 0.2546928 0.23150812 0.5850545 0.48204613 0.3987287 0.7217165
0.28560475 0.8541547 0.2721338 1.0353483 0.634256 0.3354667 0.49352518 0.6628019
0.21630964 0.73313844 0.20688377 0.6187564 0.4910224 0.6701727 0.36974198 0.6427259
0.22439823 0.59784496 0.43545732 0.6024333 0.38475895 0.34511316 0.3451424 0.519276

bn2.bias f4 [64]
00000000: 030b a6be da78 fdbe 635b f6be 7020 0cbf
00000010: 97f2 f3be a184 05bf 02cc ddbe a7fb fdbe
00000020: 56e6 dfbe d787 e5be 838c 01bf fd2d 14bf
00000030: cda8 01bf b457 cfbe 79a6 febe db4f 06bf
00000040: b91a e0be 0325 07bf 09ba 04bf 7383 f1be
00000050: 6ee2 ffbe c58d eebe c1ef 04bf 029b 0cbf
00000060: 9507 01bf fe29 f9be 68e2 fcbe 18f9 04bf
00000070: 468d 02bf 3a2e 05bf 8152 e1be 9f8f e8be
00000080: acc4 11bf 6975 6ebe f8f3 0fbf a944 11bf
00000090: 9936 07bf 93ee 02bf 1293 0fbf adc8 d2be
000000a0: a5aa 0abf 7079 dbbe fc50 04bf d2a1 dabe
000000b0: 4baa fcbe 3e90 f0be 8cdf 0cbf 40b7 f4be
000000c0: 2c8d 0fbf 9142 cfbe 1925 17bf cf8a f6be
000000d0: e19d 02bf 8290 e1be 0fee edbe e4d3 f7be
000000e0: b98f 12bf e31b ccbe c2ed 06bf 3899 00bf
000000f0: e725 0cbf da3f f5be 59a4 c6be 60e8 ddbe
-0.32430276 -0.49506265 -0.48116598 -0.54736996 -0.4764602 -0.521555 -0.43319708 -0.49606058
-0.4373042 -0.448302 -0.5060503 -0.5788267 -0.50648195 -0.404966 -0.49736384 -0.524656
-0.43770388 -0.5279085 -0.5184637 -0.471706 -0.4997744 -0.46592537 -0.51928335 -0.54924023
-0.50402194 -0.4866485 -0.49391484 -0.51942587 -0.50996816 -0.5202366 -0.44008258 -0.45422074
-0.5694072 -0.23286976 -0.5623164 -0.5674539 -0.52817684 -0.51145285 -0.56083786 -0.41168728
-0.5416663 -0.42866087 -0.5168607 -0.42701584 -0.49348673 -0.46985048 -0.55028605 -0.4779606
-0.56074786 -0.40480474 -0.5904098 -0.48152778 -0.51022154 -0.44055563 -0.46470687 -0.48403847
-0.57250553 -0.39865026 -0.5270654 -0.50233793 -0.54745334 -0.47900277 -0.38797262 -0.4334135

bn2.running_mean f4 [64]
00000000: 0385 973e b549 3b40 bfd0 81be d0d3 b1bd
00000010: d1f9 d7bf ce74 60c0 ad72 f0bf 9417 69c0
00000020: 8806 00c0 ee84 8540 8661 0dbf ab8e 0340
00000030: 099e 35c0 e6ac 9d3f 3653 7fbf 9301 72bf
00000040: 919f 56bf 8faa 1dbf 9e20 d0bf 3650 08bf
00000050: d739 1040 4175 df3f 01ad 5a40 e045 d7bf
00000060: 608d e4bf c92e 13c0 b0b0 f8bf 70c4 e3bf
00000070: 9682 2c3f 9709 0940 a06f 4cc0 a97f 84c0
00000080: 8880 3b3f 6f20 29be 9245 3840 6a40 283f
00000090: cc7c 08c0 61c2 05c1 7d39 93bf 4b60 11c0
000000a0: b447 6740 26c1 233e 61d3 63bf 389c 60be
000000b0: 732d 40c0 7f7d d03f 259c b1c0 ddee f4bf
000000c0: e2bc 783f 6d3e 23c0 2270 2a40 ac29 a8bf
000000d0: 9df6 923e a108 8dbf 2a05 82bf 5f5e 71c0
000000e0: 6115 c93f ad90 aebe 98db 07bf 640a d8bf
000000f0: 357c 17bf f978 6240 ca3e c33f 6bd8 b7bf
0.29593667 2.9263737 -0.25354573 -0.08682978 -1.6873113 -3.5071292 -1.8784996 -3.642064
-2.0003986 4.172477 -0.55226934 2.0555828 -2.8377707 1.231839 -0.99736345 -0.9453365
-0.8383723 -0.61588377 -1.6259954 -0.5324739 2.2535303 1.7457658 3.4168093 -1.6818199
-1.7855644 -2.2997305 -1.9428921 -1.7794323 0.6738676 2.1412103 -3.194313 -4.1405835
0.73243 -0.16516279 2.8792462 0.6572329 -2.132617 -8.359956 -1.1501919 -2.2715023
3.6137514 0.15991649 -0.88994414 -0.21934593 -3.002774 1.6288298 -5.5503106 -1.9135395
0.9716321 -2.5506852 2.663094 -1.3137717 0.28703776 -1.1018258 -1.0157826 -3.771385
1.5709649 -0.34094754 -0.5306945 -1.6878171 -0.591739 3.5386336 1.5253537 -1.436292

bn2.running_var f4 [64]
00000000: 8f16 0740 fabe 9541 0269 9b3f 25a6 b242
00000010: 4123 df40 9e7e 1142 671f 1a41 0c45 4342
00000020: e361 1241 3ace 5542 505d 4e42 ddda 4842
00000030: 5b12 ef41 724c 9c41 bc62 c740 ef65 fc41
00000040: b1cc 1941 4ab7 6c41 81c7 9541 f228 2740
00000050: 7dd1 2442 daee 9642 c962 8741 c532 5841
00000060: 6989 f840 8eeb 5141 7651 f840 5f84 ab40
00000070: d355 4a41 8ab7 5f40 9a7a 2a41 c00b 3f42
00000080: 6649 493f c5bb 123f cfa5 dd40 1ba8 d141
00000090: cda2 4941 c375 d842 2fff 0642 473c 3641
000000a0: 2eb8 0d41 959e 853e 1add 1241 1283 333f
000000b0: d405 d541 300c da40 b0a6 d741 6f2e 8341
000000c0: 976f 8b40 4480 eb40 5dd5 bc40 28a1 9541
000000d0: a162 8540 57cf ea40 a1f6 f941 a2f9 2541
000000e0: 02cb bb40 c95f 7740 c16f 9441 e914 2e41
000000f0: 5e1e 2141 9615 5241 281a e03f 7416 df40
2.1107519 18.71825 1.2141421 89.3245 6.9730535 36.37365 9.632667 48.81743
9.148898 53.451393 51.591125 50.213734 29.883963 19.537327 6.2308025 31.549772
9.6124735 14.794748 18.722414 2.611874 41.20458 75.46651 16.923235 13.512395
7.7667737 13.120008 7.759944 5.3599086 12.645953 3.4955773 10.654932 47.761475
0.7862762 0.57317764 6.9264903 26.207083 12.602246 108.23 33.749203 11.389716
8.857466 0.2609755 9.17898 0.7012187 26.627846 6.8139877 26.95639 16.397673
4.357372 7.3594074 5.9010453 18.70369 4.1682897 7.33781 31.245424 10.3734455
5.868531 3.8652213 18.554567 10.880105 10.069914 13.13027 1.7507982 6.971491

fc.weight f4 [4, 50176]
00000000: b179 28bd e278 92bb 1959 5bbb 9cb3 c13b
00000010: 0a7d 053c 7bbd f33b 41ce bd3c 1e18 2cbc
00000020: 289a b9bc 5204 543c bf81 b43d 7847 313d
00000030: 5cc6 533c 1a94 7d3d ff6e 3a3c 0dff 36bb
00000040: 29e5 d83c 0a7a de3c 12a6 813d eff1 6b3c
00000050: 1c5d e63c 25dd 103d fdd2 153d 6dac 293d
00000060: 9e49 fb3c cd01 bf3c b2ec b33c dc71 08bc
00000070: 7efb f23b 5e88 66bd fb80 b2bd add2 03bc
00000080: 8d2e 063d 763b 023b 9b63 ce3d 7ef9 4c3d
00000090: 5db8 a33c fbc5 75bd 0b2e a43d 31d2 563c
000000a0: eb8b 3bbc f80e 6bbc dab7 433d 7e18 84bb
000000b0: de80 833c 3fe0 b93c 3108 b83d 5905 a8bd
000000c0: a461 e2bc 9c58 803d 187c 3d3d 6ccc 023d
000000d0: f547 ae3c 9978 123d bbc6 0bbc d8fa eb3c
000000e0: d882 b63c 274b 72bb f503 7ebc 0a92 88bd
000000f0: 34b5 683d 3569 52bd 98b7 ebbb 68b9 78bd
00000100: c321 e73c 15af f8bc 9080 183c 197d e63c
00000110: 753f 6abd 133b fb3c 9527 1fbd eaf9 69bb
00000120: 085a d23c 547b 913c da3f 9bbd 59d9 3bbd
00000130: 7417 afbd 143e a93d dc38 e1bc 5f6c e1bc
00000140: 4a6c 973d b365 b139 4b9d f33b 3a74 aa3c
00000150: 5091 503c 1142 16bc d1cc 693d 9afd 10bc
00000160: 2d20 22bb a050 d33c 3009 e23c 6f93 15bd
00000170: 4f91 573c 4097 7ebc 9ca5 9a3c 2a1b 84bc
00000180: 1660 e1bc 0cca c63c 3d8d c83c d690 9bbd
00000190: c934 81bc 9078 4d3d 04f2 e0bc 5eea d63a
000001a0: 7b89 06bc 56cf 943c 174c 1c3d a5de 053d
000001b0: b945 343d b2f1 0ebe 0c7b 1ebd 30ae bd3d
000001c0: 800e 363c 6fe7 6e3d 42b3 323d 1f25 9fbc
000001d0: c249 ffbb f537 d43c 04d9 773d 5a65 7b3d
000001e0: 748e b3bc eae3 1a3d 13c0 ae3d e850 6c3d
000001f0: 06e0 ee3c 9693 7ebd b2c8 203d 2af2 163d
00000200: aa1c d3bc 4253 433c 09be 3f3d 7294 b23c
00000210: 9185 883d 22ff 62bc 7a48 cc3d 0f1d d9bc
00000220: 9ae3 c43c a2b5 20bd f3b8 0fbc 743e 27bc
00000230: 29db 9bbc d51a 2b3d 0e52 6b3d c16f 61bd
00000240: b703 0bbd fa05 51bb 9618 a5bc 92b0 893d
00000250: 8a5e d13c 104d b8bc f1ba 833c 3cf4 aebc
00000260: dc13 2a3a 5f7d 123e 38ac 783c 2611 2bbd
00000270: 00ba 413c 6957 9ebb a91f 7c3d 33c6 223d
00000280: 3c80 f6ba e1bb 7cbd 16cc 38bc 765c 7d3d
00000290: 8eca f2bc 6b89 6f3d 1875 f53d 92a8 fcba
000002a0: b85d d63c 0f27 13bd e5d4 31bd 6caa ac3c
000002b0: 562d 9bba 0f01 d6bc c7c5 9fbd f4d4 0bbc
000002c0: 88f9 05bd ef41 bcbb 8a00 21bd 1298 d83c
000002d0: 3db9 7cbd 9e57 07bd d54d 103d 5da1 6cbc
000002e0: 2b87 a6bc 7498 8fbc 770c 4c3d 6987 863c
000002f0: 56f8 70bc 1951 86bb 4f75 e1bc 24c9 e7ba
00000300: 0527 0c3d 3610 0abd 1350 9c3a c40c 61bd
00000310: b771 a73b 1a5e b23d 0010 8b3d 61c8 c2bc
00000320: 573a 94bd 7b0f 46bc 1dba 5cb9 a14f b83c
00000330: 7be5 8fbc 4794 8d3d e4fe 55bc c74f 9c3b
00000340: 0d95 51bc 1234 e63c 9a2f 18bd 43b4 df3b
00000350: 7e16 f53b 3e6e 953c ef69 90bb 56ec b83c
00000360: 913c cebc 884e 3e3c 7b11 113c a641 7d3d
00000370: 045c 8e3d 3733 e6bd c11c 163d 8a50 5f3d
00000380: 56a6 603c fc03 653d 990c f5bd e60f a73d
00000390: 34d0 333d e701 de3d de9c 22bd 01a4 cebc
000003a0: 012a 443d 6fa1 4f3d ca2e 393d 92f0 dbb8
000003b0: e48a cfbc 887e 903c 6e18 17bd f108 4b3c
000003c0: 9f01 6c3c d503 cbbc e454 153d 4389 a33c
000003d0: f711 8abd 7d53 463d 327c 12bd 2557 053d
000003e0: f768 58bd 494c 27bd 5ea6 783d 234b 5e3d
000003f0: bef4 d33c a0bb 9f3d 7331 61bc 1112 933d
-0.04113168 -0.0044699768 -0.0033469854 0.0059113037 0.008147487 0.0074383593 0.023169639 -0.010503797
-0.022656515 0.012940483 0.088138096 0.04328105 0.0129257105 0.06190882 0.011379003 -0.0027923018
0.02647646 0.027157802 0.063305035 0.014400943 0.02812057 0.03536715 0.036578167 0.041424204
0.030674752 0.023316288 0.021963451 -0.008327927 0.007415234 -0.056282394 -0.08716007 -0.0080458345
0.032759238 0.0019871867 0.10077592 0.05004262 0.019985372 -0.060003262 0.080165945 0.013111637
-0.011446933 -0.014346831 0.047782756 -0.00403124 0.01605266 0.022689937 0.089859374 -0.08204145
-0.02763445 0.06266901 0.046260923 0.031933233 0.021274546 0.035759542 -0.008531268 0.028806135
0.022279188 -0.0036971064 -0.015503873 -0.0666848 0.056813434 -0.051369864 -0.007193517 -0.060723692
0.028214341 -0.030356923 0.009307995 0.028135823 -0.057189424 0.030667817 -0.038856108 -0.003570194
0.025677696 0.017759003 -0.07580538 -0.045861576 -0.08549395 0.082637936 -0.027492933 -0.027517496
0.073937014 0.00033835843 0.0074345223 0.020807374 0.012729958 -0.009171025 0.057080094 -0.008849526
-0.0024738417 0.025795281 0.027592272 -0.036517557 0.013157203 -0.0155389905 0.018877797 -0.016126234
-0.027511638 0.024266265 0.02448141 -0.07595985 -0.01577224 0.050163805 -0.027459152 0.0016396751
-0.008211489 0.018165272 0.038158502 0.032683033 0.044011805 -0.13959387 -0.038691565 0.09261739
0.0111118555 0.05832618 0.043627985 -0.01942688 -0.007790775 0.025905589 0.060509697 0.061375953
-0.021918513 0.037815012 0.08532729 0.057694346 0.029159557 -0.062152468 0.039253898 0.03685204
-0.025770504 0.011921706 0.04681209 0.0217993 0.06666101 -0.013854774 0.09974761 -0.026503114
0.02403431 -0.03923572 -0.008772123 -0.010207761 -0.019025402 0.041773636 0.0574513 -0.055038217
-0.03393909 -0.0031894431 -0.020153325 0.06723131 0.025557775 -0.022497684 0.016080352 -0.021356694
0.00064879446 0.14305638 0.015177779 -0.0417644 0.011824131 -0.0048321974 0.06155363 0.0397398
-0.0018806527 -0.061702613 -0.011279127 0.061855756 -0.029637601 0.05848066 0.119852245 -0.0019276312
0.026167735 -0.03592592 -0.043415923 0.021077357 -0.0011839073 -0.026123552 -0.07801395 -0.008534659
-0.032708675 -0.0057451646 -0.039307155 0.0264397 -0.061700094 -0.033042543 0.035230476 -0.014442769
-0.020328125 -0.01752875 0.049816575 0.01642199 -0.014707645 -0.004099023 -0.027521757 -0.0017683846
0.0342169 -0.033706866 0.001192572 -0.054943815 0.0051099914 0.08709355 0.06790161 -0.023777189
-0.0723769 -0.012088652 -0.00021050168 0.022498908 -0.01756548 0.06913047 -0.013061259 0.0047702524
-0.012791884 0.028101001 -0.03715477 0.006826909 0.007479488 0.018241044 -0.0044071595 0.022573631
-0.025175365 0.011615403 0.008854265 0.061830185 0.06951144 -0.11240237 0.036648516 0.054520167
0.013711533 0.055912003 -0.119652934 0.08157329 0.04389973 0.108402066 -0.03970038 -0.025224688
0.04789162 0.050691064 0.045210637 -0.000104875435 -0.025334783 0.01763846 -0.036888532 0.0123922685
0.014404683 -0.0247821 0.03645791 0.019962912 -0.06741708 0.048419464 -0.035762973 0.03255381
-0.052834477 -0.040844236 0.060705535 0.054270875 0.025873538 0.077994585 -0.0137447 0.0718118

fc.bias f4 [4]
00000000: 3ba8 92bd 7fcb 003e 7e19 afbc 72f1 04bd
-0.07160994 0.12577628 -0.02137446 -0.032456823
